dl_workspace/abr_q_network.pth (torch, 22084 bytes, 6 tensors)

fc1.weight f4 [64, 5]
000000 23 3d 7a be 5b 03 b9 3e e1 ac d8 bd 5d 89 ca be
       -0.24437384 0.36135373 -0.10579849 -0.39557925
000010 0b 27 62 bd 62 74 56 3e 7a ed e7 40 eb 6f 1b 42
       -0.055213016 0.20942834 7.247739 38.859295
000020 de 7c bb 41 e6 ea b9 41 8f 7e f0 3e 1e 2a eb 40
       23.43597 23.239697 0.46971557 7.3488913
000030 4e 08 1c 42 b4 7b be 41 c3 69 c0 41 b6 9a b0 3e
       39.00811 23.810402 24.051641 0.34493035
000040 15 6a d9 40 88 0a 1d 42 5a 44 bf 41 6f 7d bd 41
       6.7941995 39.260284 23.908375 23.686247
000050 6c 0c 0b 3f 46 1a d8 40 c8 3f 1a 42 3f a7 bc 41
       0.5431583 6.753207 38.562286 23.581663
000060 50 2d c0 41 96 21 e2 3e 49 db d2 40 c6 77 1c 42
       24.022125 0.4416625 6.589268 39.116966
000070 0a 70 bb 41 3f a2 ba 41 25 72 a7 3e 01 bd dc 40
       23.429707 23.329222 0.32704273 6.898072
000080 0e 7a 1c 42 2d 2a b9 41 59 bd bb 41 c0 65 9d be
       39.119194 23.145594 23.467455 -0.30741692
000090 87 00 64 3d c9 29 65 3e c2 b5 15 3c ea 32 99 be
       0.055664565 0.22379221 0.009137573 -0.29921657
0000a0 7c ab 1c 3f f8 ee e3 40 da c2 1b 42 c5 61 be 41
       0.61199164 7.122921 38.940285 23.797739
0000b0 2d 02 ba 41 47 aa 74 bd f8 65 b9 3e 8b ae 0b be
       23.251062 -0.0597327 0.36210608 -0.13640802
0000c0 54 a9 9a bd 5e ab 4f 3e f0 03 08 3f 7c ea d3 40
       -0.07551828 0.20280215 0.5313101 6.6223736
0000d0 67 43 1b 42 30 26 c0 41 61 34 c0 41 93 3d bf 3e
       38.815823 24.018646 24.025576 0.37351665
0000e0 4a 50 d6 40 f3 23 1b 42 65 60 ba 41 f3 63 bb 41
       6.697301 38.785107 23.297068 23.423803
0000f0 45 ad 90 3e 3d b9 eb 40 73 18 1b 42 56 30 bf 41
       0.28257194 7.366362 38.773876 23.898602
000100 ca 47 bd 41 a3 a1 c6 3e 94 bf d5 40 e9 a1 1b 42
       23.660053 0.38795194 6.679636 38.908115
000110 8d f7 bd 41 26 06 c0 41 61 eb 6e 3e 7a 7b d5 40
       23.745874 24.003002 0.23331977 6.671323
000120 db e4 19 42 03 b6 bf 41 98 cd bd 41 d7 16 d9 3e
       38.47349 23.963873 23.725388 0.42400238
000130 6d 67 e2 40 e1 b3 19 42 85 c4 b9 41 84 cb b9 41
       7.075125 38.425663 23.220957 23.224373
000140 e7 a3 d5 be 8f 1c b4 3d d9 a8 6c be 40 8b bf be
       -0.4172661 0.087945096 -0.23111285 -0.37410927
000150 51 c8 e1 be 90 3a 1a 3f 7d fe d2 40 d0 3e 1d 42
       -0.44098142 0.6024561 6.5935655 39.31134
000160 48 7e bf 41 80 b7 bb 41 12 6d 65 3e b3 b6 d2 40
       23.93666 23.4646 0.22404888 6.584802
000170 a5 cb 1c 42 fc 2b bb 41 24 4d bf 41 fe b8 4d be
       39.19887 23.396477 23.912666 -0.200901
000180 51 14 cc be 79 36 d3 3c c9 e7 97 be 96 70 38 be
       -0.3985925 0.02578281 -0.29669026 -0.18011698
000190 41 e6 63 bd 56 52 86 be 16 f4 e1 be b3 50 ca bd
       -0.05563951 -0.26234692 -0.44131535 -0.098786734
0001a0 18 b6 15 bd 84 20 1d be 17 94 5a be 8d 47 84 be
       -0.03655061 -0.15344435 -0.21345554 -0.2583584
0001b0 1b d8 93 3d 1d 18 c2 bc 9d 6c b9 be 39 ee d5 3c
       0.07218953 -0.023693139 -0.36215678 0.02611457
0001c0 10 98 73 be 92 0c 94 bc c0 a8 9f 3e af 3d 17 bd
       -0.23788476 -0.0180724 0.31183434 -0.03692406
0001d0 bb 7f e3 bb c2 22 56 be 17 a4 33 bd fe 16 b2 3d
       -0.006942717 -0.20911697 -0.04385766 0.08695792
0001e0 e2 eb 2c bc 1a 1a 96 3d d9 26 1f be 44 56 9d bd
       -0.010554286 0.07329197 -0.15542163 -0.076824695
0001f0 2a 91 a2 3e 19 69 e6 bd 92 07 c9 be ad 4c a5 be
       0.31751376 -0.112505145 -0.39263588 -0.3228506
000200 89 2b 5f 3d 89 d2 c1 3e 0b 1c 9e 3e 3b 26 de 40
       0.054484878 0.37855938 0.3088077 6.942167
000210 d2 64 1b 42 99 04 bf 41 35 bd b9 41 15 46 46 3e
       38.848457 23.877245 23.217386 0.19362672
000220 08 7d e7 40 6b 3f 1c 42 91 1f ba 41 6e 85 bc 41
       7.2340126 39.06193 23.265413 23.565151
000230 16 1e 3d 3e 60 71 de 40 fa c6 19 42 28 92 ba 41
       0.18468508 6.9513397 38.444313 23.321365
000240 03 50 be 41 79 19 a9 3e fc ec d2 40 32 c4 1a 42
       23.789068 0.33027247 6.5914288 38.691597
000250 17 95 bb 41 4d cc c0 41 6e ed 7c be ed 71 54 be
       23.447798 24.099756 -0.24699947 -0.20746584
000260 4d 44 7d bd 9f cc ce 3e 3d 99 a0 bb fd d6 2b be
       -0.061832715 0.40390489 -0.00490108 -0.1678123
000270 cf 5b 83 be 03 7e cc be 31 4a 25 be 21 0e ca 3e
       -0.25655982 -0.3993989 -0.16141583 0.39463905
000280 c8 b0 f4 3e 57 1f d8 40 d2 de 1a 42 8e 04 bc 41
       0.47791123 6.7538257 38.717598 23.502224
000290 ce 71 bf 41 ec 05 18 3f de 69 de 40 f2 82 1b 42
       23.930569 0.59384036 6.9504232 38.877876
0002a0 a6 4c b9 41 65 dc bb 41 25 f7 fc 3e b6 70 d6 40
       23.162426 23.482615 0.49407306 6.7012587
0002b0 9a ed 1a 42 7a 7c bc 41 6f 0c bc 41 f0 6f 2c be
       38.732033 23.56078 23.506071 -0.16839576
0002c0 3a 93 1f bd 0b 27 36 3e de 2b b2 be 79 0a ba 3e
       -0.038958766 0.17788331 -0.34799093 0.36336115
0002d0 b4 ac f1 3e f5 b2 d0 40 8d 25 1b 42 bc 54 c0 41
       0.47202075 6.5218453 38.78667 24.041374
0002e0 49 3c bf 41 28 0e dc 3e c7 21 d0 40 ad c8 1b 42
       23.904436 0.4297955 6.504123 38.945972
0002f0 d7 60 bf 41 fd af ba 41 a5 a3 da be bc e5 78 be
       23.922285 23.335932 -0.42702976 -0.24306387
000300 b5 cc d3 bd 83 c8 b4 3e 48 ca cb 3e 50 e0 85 3e
       -0.10341779 0.35309228 0.39802766 0.261477
000310 26 e3 ea 40 8e f0 1b 42 70 95 bb 41 5e c0 bc 41
       7.340228 38.984917 23.447968 23.59393
000320 9d 25 32 be 1e a3 d7 3e 97 49 4c 3e d2 51 c3 be
       -0.17397161 0.42116636 0.19949947 -0.3814836
000330 5e a4 b1 3e bc eb a6 3e 99 3d d1 40 9e 77 1d 42
       0.34695715 0.32601726 6.5387692 39.366814
000340 1b 13 c0 41 9d 8d bb 41 4e ea 15 3f 21 2c dc 40
       24.009329 23.444147 0.58560646 6.880387
000350 fe 30 1c 42 f0 f7 bc 41 ed 05 be 41 6f e6 af be
       39.047844 23.621063 23.752893 -0.34355494
000360 4b 59 23 3e 11 77 d8 3e b6 d7 de be f9 fa 39 3d
       0.15952031 0.4227834 -0.4352395 0.04540536
000370 c8 5e e4 3e 40 c3 d5 40 72 80 1b 42 68 f1 bd 41
       0.44603562 6.680084 38.875435 23.742874
000380 49 1d ba 41 b8 8c ce 3e ba 0e d7 40 1b 82 1a 42
       23.2643 0.40341735 6.7205477 38.627056
000390 aa 98 be 41 20 58 bd 41 a2 76 8f bd 77 1e 3e 3e
       23.824543 23.66803 -0.07005049 0.18566309
0003a0 f3 72 02 3d 7e 7d a5 bd c2 f9 23 3e c9 ac da 3e
       0.031847905 -0.08080576 0.16013244 0.4270995
0003b0 84 aa d7 40 e8 d3 1d 42 72 d1 bd 41 bc cd be 41
       6.739565 39.45694 23.727268 23.850456
0003c0 8a 70 94 3e b7 b6 e9 40 dd 93 1b 42 38 f8 bb 41
       0.2899211 7.303554 38.894398 23.4962
0003d0 78 e0 ba 41 87 d7 f0 3e cf b9 d2 40 b4 12 1d 42
       23.359604 0.47039434 6.5851817 39.268265
0003e0 54 a2 bb 41 e6 3f b9 41 5f 28 b9 be 51 01 c9 bd
       23.454262 23.1562 -0.36163613 -0.09814704
0003f0 cd d2 d0 be 55 a6 8b 3e e7 e9 db 3e 5d 9e d7 3e
       -0.40785828 0.2727534 0.4295189 0.4211301

fc1.bias f4 [64]
000000 9c 29 68 3e 72 05 09 42 ba b3 07 42 a0 28 06 42
       0.22672123 34.255318 33.925514 33.539673
000010 05 fa 07 42 c0 b6 05 42 7e b9 07 42 6d 6f d9 3e
       33.99416 33.428467 33.931145 0.42467824
000020 51 a6 05 42 53 d7 9b 3e 99 de 08 42 fb 37 05 42
       33.41242 0.30437717 34.21738 33.30467
000030 66 05 08 42 8e c7 05 42 31 ec 06 42 26 8f 07 42
       34.005272 33.444878 33.730656 33.889793
000040 b4 5e ac 3d 75 b3 07 42 31 86 08 42 a5 93 d6 be
       0.08416501 33.92525 34.131046 -0.4190952
000050 bc 53 bf be 70 b3 96 3d 97 2f a3 bd 61 49 dd be
       -0.37368572 0.07358444 -0.079680614 -0.43220046
000060 9e e2 ef bd b8 ed 7a be af 12 07 42 61 e6 06 42
       -0.11713146 -0.24504745 33.768246 33.72498
000070 99 0a 07 42 e0 e3 05 42 d6 82 bd 3e bf 59 26 3d
       33.76035 33.472534 0.37013882 0.040612932
000080 f7 bd 08 42 04 04 06 42 a8 20 08 42 e9 6b 51 3d
       34.185513 33.50392 34.03189 0.0511283
000090 4d 8b 07 42 50 04 08 42 d2 2f a2 3e 30 fc 07 42
       33.886036 34.00421 0.3167711 33.996277
0000a0 f5 52 b6 bd d8 91 05 42 76 ac 08 42 15 ca 4d be
       -0.089025415 33.392426 34.16842 -0.2009662
0000b0 e9 00 07 42 f0 e1 06 42 4b 51 17 3e e3 f6 06 42
       33.75089 33.720642 0.14777105 33.7411
0000c0 d6 e2 05 42 e0 26 05 42 6c bf bc 3e cf 91 07 42
       33.47152 33.287964 0.36864793 33.89239
0000d0 09 2a 07 42 60 13 89 be af 2d 07 42 c2 a9 ec 3d
       33.79105 -0.26772594 33.794613 0.11555816
0000e0 b5 4d 06 42 73 ab 05 42 c6 20 08 42 43 f4 99 3d
       33.575886 33.41743 34.032005 0.07517292
0000f0 90 a4 08 42 fc ca c9 3c 94 da 49 be 80 43 be be
       34.160706 0.024632923 -0.19712287 -0.37160873

fc2.weight f4 [64, 64]
000000 00 5b 55 3d 18 7a 66 3e 6b ed 69 3e ef 4c 96 3e
       0.052088737 0.22507513 0.22844474 0.2935557
000010 47 4b 6a 3e 49 00 9f 3e ac 0e 31 3e e0 d8 37 bd
       0.22880279 0.31054905 0.17290753 -0.044884562
000020 e5 da 4a 3e 30 28 13 bc d0 7f 16 3e 1d b8 2a 3e
       0.19810064 -0.008981749 0.14697194 0.16671796
000030 fe 31 6c 3e e8 de 4e 3e 6f af 10 3e d4 1f 7a 3e
       0.23065946 0.2020222 0.14129423 0.24426204
000040 5c 1b d6 3d f9 fa a8 3e d1 7e 6d 3e 4c 93 4a 3d
       0.10454437 0.33003977 0.23192908 0.04945688
000050 c4 6b c3 bd 34 e1 50 3d 40 19 ff 3d c0 52 ac bc
       -0.09542039 0.05099602 0.12455988 -0.021035552
000060 50 46 d9 bd 1c e1 87 bd 0b a9 1f 3e 18 da b6 3e
       -0.10609114 -0.06634733 0.15591829 0.35713267
000070 c3 09 8b 3e 8c 4c 16 3e 00 3f ce ba 90 0e 69 bd
       0.27155885 0.14677638 -0.0015735328 -0.056898654
000080 cd 4f b2 3e 7e 21 19 3e c8 ef a6 3e f8 56 40 bd
       0.34826508 0.14954183 0.32604814 -0.04695794
000090 d0 a8 98 3e 85 e7 ad 3e 10 57 f8 3c cf 90 38 3e
       0.29816294 0.33965698 0.030314952 0.1802399
0000a0 48 b1 a2 bd 5a 7b a3 3e 70 0b 90 3e e0 4e c1 3b
       -0.0794397 0.31930047 0.28133726 0.005899295
0000b0 80 0f d8 3d 3d 06 7a 3e 04 a2 65 3d be 67 9a 3e
       0.105498314 0.24416442 0.056062713 0.30157274
0000c0 3d 28 93 3e 64 8b a0 3e b2 2e c4 bd fc cf b4 3e
       0.28741637 0.31356347 -0.09579219 0.3531493
0000d0 bc 01 3f 3e 4c d3 24 3d 40 59 44 3e 10 0c 3c bd
       0.18653005 0.04024057 0.19174671 -0.04590994
0000e0 b1 43 9f 3e c3 db 42 3e 38 7e b1 3e 90 e3 30 bc
       0.31106332 0.19029145 0.3466661 -0.010796443
0000f0 fd 42 8d 3e 36 da ea bd a4 03 f3 3d f4 80 a8 3d
       0.2759017 -0.11467402 0.11865929 0.08227721
000100 e4 0d 9e 3d b9 fa 88 3e c9 ac a1 3d ca cb 5e 3e
       0.07717493 0.26753786 0.07894284 0.21757427
000110 81 5d 95 3e 67 ca 96 3e da 6d ce 3d f0 c6 7f bc
       0.291729 0.29451296 0.10079546 -0.015611395
000120 2e a0 9c 3e f6 d4 9c bd b0 13 d0 3d ae 2e 22 3e
       0.30590957 -0.076578066 0.10160005 0.1583812
000130 9c b6 46 3e e0 aa 8f 3e ee 16 c7 3d 65 f3 8f 3d
       0.19405597 0.28060055 0.0972117 0.07028846
000140 3c 93 34 bd 0d a7 31 3e c9 fe d7 3d 00 a8 4a bb
       -0.044085726 0.17348881 0.10546643 -0.003092289
000150 e0 cb cd 3c 40 65 c1 bb 68 11 fc 3d f8 c1 15 bd
       0.02512163 -0.0059019625 0.123080075 -0.036561936
000160 3e 71 f0 bd 26 62 a4 bd 0c 25 1f 3e 4e 7e 0f 3e
       -0.11740349 -0.08026533 0.15541476 0.14013025
000170 70 23 f8 3d e0 1c 8c 3e 24 23 8a bd d8 c3 65 bd
       0.12116134 0.2736578 -0.06744984 -0.056094974
000180 4c f6 44 3e 82 8f 13 3e 61 2e 26 3e 00 0b 6d 3c
       0.1923458 0.14410213 0.1622863 0.014467955
000190 d1 fe 82 3e db 49 b3 3d 1c b8 12 bd e4 1a fb 3d
       0.25585034 0.08754321 -0.03582011 0.12260988
0001a0 f8 d6 dc bd 42 0d 7b 3e c9 d2 91 3e 76 58 dc 3d
       -0.107831895 0.24516776 0.2848113 0.1075906
0001b0 fa 49 89 3e 3b 11 32 3e 80 87 60 3b 9a 88 8b 3e
       0.26814252 0.17389385 0.0034260452 0.27252656
0001c0 c9 ac 67 3e 3b f4 13 3e 18 98 e4 3d c2 74 5b 3e
       0.22624506 0.14448635 0.11161822 0.21431258
0001d0 fb ab 2f 3e d0 84 b9 3d f4 4e 6e 3e f8 09 a3 3d
       0.17155449 0.09058535 0.23272306 0.07960886
0001e0 d3 47 f8 3d d1 6b 7c 3e 80 d9 05 3e b4 68 19 bd
       0.121230744 0.24650504 0.13071251 -0.03745337
0001f0 1b 24 89 3e 5c cf f0 3d 2a 8f cf bd 3a 17 a7 bd
       0.2678536 0.11758301 -0.10134728 -0.08158727
000200 30 c5 ea 3d 38 cf 93 bc e8 29 36 bd d4 45 e2 3d
       0.11463392 -0.018043146 -0.04447356 0.11048475
000210 92 39 b8 bd 58 34 9c 3c a8 cd 49 3d 68 6d a3 3d
       -0.08995356 0.019067928 0.049268395 0.07979852
000220 a0 1b 8f 3b c4 b8 50 bd e6 2a df bd 22 32 81 bd
       0.004367307 -0.050957456 -0.10896854 -0.0630839
000230 c8 68 6c 3d 96 9d fd bd 18 5d b9 3c 94 cf 80 bd
       0.057717115 -0.12383573 0.022627398 -0.062895924
000240 da a0 cb 3d c0 58 91 bb e8 ba cf 3c 60 38 c5 bb
       0.099427894 -0.0044356287 0.025357679 -0.0060186833
000250 20 b4 bb bc 20 78 8e bb 32 85 9b bd 18 bd 13 3d
       -0.022913039 -0.004347816 -0.07593764 0.036069006
000260 00 0b 08 bc 9c 88 a8 bd fe c1 fa bd 52 dd e2 3d
       -0.008303404 -0.08229181 -0.12244032 0.1107737
000270 b8 89 30 bd 4a 0b f1 bd a0 ee 80 bb ca 7a a7 bd
       -0.04310009 -0.11769731 -0.0039346963 -0.08177717
000280 60 88 5d bc c0 78 46 bd 46 4c 9d bd 48 fe af bc
       -0.013521284 -0.048455 -0.07680564 -0.021483555
000290 46 31 98 bd d4 6f a3 bd 7c 0f 05 3d 60 bc 84 bd
       -0.07431273 -0.07980314 0.03248547 -0.06481242
0002a0 a6 13 8c 3d 20 d4 01 bc ae 5c f3 3d 40 71 43 bd
       0.06839685 -0.00792411 0.118829116 -0.047715425
0002b0 5c eb 4b 3d 36 66 e4 3d 18 76 83 3c cc da 70 3d
       0.049785003 0.11152308 0.016047522 0.05880241
0002c0 d6 8a c7 bd ac ab e7 bd 20 5f 71 3c 48 cb 7d 3d
       -0.09743278 -0.11312041 0.014732152 0.061961442
0002d0 54 68 77 bd f0 ed af bd 74 8e df bd 72 f8 8c bd
       -0.06040223 -0.08590305 -0.10915843 -0.06883325
0002e0 40 72 60 bb d8 6b 9b 3d 8e 37 bd bd 9e 21 fc 3d
       -0.0034247786 0.07588929 -0.09239112 0.123110995
0002f0 b2 e4 8b 3d 50 72 d6 3d 6c 4c 2d bd b6 5c 91 bd
       0.068307295 0.10471022 -0.04230921 -0.07097761
000300 54 a8 41 bd aa b5 33 3e b4 df 9e 3e 32 19 a3 3e
       -0.04727967 0.17549768 0.31030047 0.3185516
000310 10 2d 02 3e 12 8f 31 3e 0d d4 f7 3d c8 70 db bc
       0.12712502 0.17339733 0.12100992 -0.026787177
000320 ff 52 28 3e 24 8a 87 bd b4 3d 79 3e d6 9b 4a 3e
       0.1643791 -0.06618145 0.24339944 0.19786009
000330 79 07 31 3e c7 9e f2 3d 0f ca 8d 3e 1e a1 35 3e
       0.17288007 0.118466906 0.2769322 0.17737243
000340 84 a9 84 bd 47 fc 86 3e a7 57 89 3e 98 43 5d bd
       -0.06477645 0.26364347 0.26824686 -0.05401954
000350 84 aa 1c 3d c0 8a 45 bd fc fa de bd 48 f4 6a bd
       0.038248554 -0.048228025 -0.10887715 -0.05736187
000360 10 48 87 bc 48 fb a5 bd 09 7e 76 3e 1c d4 37 3e
       -0.016513854 -0.08104569 0.24071516 0.17952007
000370 75 47 64 3e b4 08 75 3e aa 51 9c bd 5c 2f 64 3d
       0.22292884 0.23929101 -0.07632764 0.055709228
000380 58 dd 92 3e 6e 86 2f 3e d6 bb 8f 3e b4 10 b0 bd
       0.28684497 0.17141125 0.28072995 -0.08596936
000390 e7 33 20 3e 33 f4 4f 3e 8e bf ca 3d 7f 66 2a 3e
       0.15644799 0.20307998 0.098998174 0.16640662
0003a0 9e ed e0 bd 14 e7 65 3e 62 0e fd 3d 1c be 5b 3d
       -0.10982822 0.2245143 0.12356259 0.0536481
0003b0 6a 7a fb 3d cd 9c 86 3e 6a 60 c0 bd 89 ec 32 3e
       0.12279208 0.26291505 -0.093933895 0.17473044
0003c0 a7 f1 a3 3d 43 47 e9 3d 0e 37 bf bd c2 ad 7d 3e
       0.08005076 0.11390545 -0.09336673 0.24773315
0003d0 53 7d a2 3d 3c ac de bd ce d9 64 3e 28 c4 38 bd
       0.0793406 -0.10872695 0.22348711 -0.045108944
0003e0 da a6 2d 3e bb 7d 88 3e 52 d0 01 3e 48 97 cb bd
       0.1695818 0.26658425 0.12677124 -0.09940964
0003f0 a5 32 9b 3e 78 3a f7 3c 16 da 9d bd 0c 15 e7 3d
       0.30312076 0.030179247 -0.07707612 0.11283311

fc2.bias f4 [64]
000000 40 e1 07 42 2d a3 08 42 78 b5 78 3d 9a 49 09 42
       33.96997 34.15935 0.060719937 34.321877
000010 4c f2 f1 bd 82 5d f5 3d 5f 29 26 bd 71 5b 87 3c
       -0.118137926 0.11980726 -0.0405668 0.016523095
000020 e3 a1 07 42 fe 82 ed bd c0 97 d6 bd 30 30 bb bd
       33.908092 -0.115972504 -0.10478163 -0.091400504
000030 fe a3 09 42 b4 a3 08 42 ab de 50 3c c0 4b 80 3c
       34.41015 34.159866 0.012748401 0.01566112
000040 a4 22 d4 3c e4 dc d0 3d 6d 89 06 42 a9 7a 07 42
       0.025895424 0.101983815 33.634205 33.869785
000050 ef 01 08 42 18 96 d9 3d 08 19 ac 3d b8 68 82 3d
       34.00189 0.10624331 0.08403212 0.0636763
000060 a4 39 71 3d 80 11 00 3b fc ec 6f bd 1f 7f 38 3d
       0.05889286 0.001954168 -0.058575615 0.045043107
000070 14 1f 27 3d 8d 37 08 42 30 0c 5c 3c fa e4 f6 3d
       0.040801123 34.05425 0.01343064 0.120553926
000080 a0 56 8a 41 99 14 b0 3d 80 d1 0b 3d bf c5 08 42
       17.292297 0.08597679 0.03413534 34.19311
000090 f7 f2 87 3d 48 5b c9 bc 08 f2 58 bd 54 bd 17 bd
       0.06638139 -0.02457966 -0.052965194 -0.03704579
0000a0 81 52 07 42 99 a0 39 bd 5c dd cb bd 5a 4a af 3d
       33.83057 -0.045319173 -0.0995433 0.08559103
0000b0 68 97 07 42 e8 5f 7a 3d ad ae f8 bd d9 c3 c3 3d
       33.897858 0.06112662 -0.12142692 0.09558839
0000c0 b6 49 08 42 bc 3a fc 3d 8c 00 50 bd f2 fe 08 3d
       34.071983 0.1231589 -0.05078177 0.03344626
0000d0 72 60 9c bd d1 a8 09 42 b0 cb 8b 3d e4 c5 08 42
       -0.07635583 34.41486 0.0682596 34.193253
0000e0 7b c8 d3 bd 0a ae 86 bd 40 92 60 3c c6 3f 86 bd
       -0.10340973 -0.06576164 0.013706744 -0.065551326
0000f0 d5 de 08 42 b2 c1 a2 bd 5a 36 09 42 74 f6 63 bd
       34.21761 -0.07947101 34.303078 -0.055654958

fc3.weight f4 [5, 64]
000000 57 b6 aa 3e 5d fb 86 3e 80 f2 30 bb ca c7 91 3e
       0.3334224 0.2636365 -0.002700001 0.2847274
000010 3e f7 81 3d 5e c4 e8 3d ce c1 02 bd 51 36 23 bd
       0.06345986 0.11365579 -0.031923108 -0.039846722
000020 ff 36 c8 3e c2 0e c5 3d 64 00 af bd 18 bc a4 3c
       0.3910446 0.096219555 -0.085449964 0.020109221
000030 89 ca d2 3e 8f 99 98 3e 2e 5e 97 bd 28 94 db bc
       0.41170147 0.29804656 -0.0739101 -0.026804045
000040 43 a8 b7 3d be cb b8 bd 8c 98 be 3e 8a 3a b5 3e
       0.0896764 -0.09023236 0.3722576 0.35396224
000050 a9 56 b5 3e b4 c4 e4 bd c0 a9 4f bd 94 a3 1b bd
       0.3541768 -0.11170331 -0.050698996 -0.037997797
000060 5f 7c 39 bb d0 38 09 bd 96 1f ef 3d e5 42 23 bd
       -0.002830289 -0.033501446 0.116759464 -0.039858717
000070 20 3b 8f 3c 72 04 b1 3e e0 91 89 3d c0 2f 98 3d
       0.017484248 0.34573704 0.067172766 0.074309826
000080 88 15 f4 3d cb e5 c7 bd 6c 7e 87 bb f7 78 8c 3e
       0.11918169 -0.097606264 -0.0041349437 0.2743604
000090 bd 07 0d bd 1e 37 a3 3d b2 7d ef 3d a2 ea c2 3d
       -0.034431208 0.07969497 0.11693896 0.09517409
0000a0 b6 f4 9b 3e 74 e4 40 bd 22 55 5e bd 28 4e ac bd
       0.30460137 -0.04709287 -0.054280408 -0.084133446
0000b0 da e3 a6 3e 35 05 d3 3c 63 84 c6 bd 59 31 b6 bd
       0.32595712 0.025759319 -0.096932195 -0.08896131
0000c0 cd cb 81 3e d0 7c 55 bc 50 cc c7 bd a1 57 02 bd
       0.253508 -0.013030246 -0.097557664 -0.03182185
0000d0 be b1 ea bd 6c 50 80 3e 26 c7 b3 bd fc 25 8d 3e
       -0.11459683 0.25061357 -0.08778219 0.27568042
0000e0 1a 42 85 3d 84 29 e6 3d e0 8d 4d 3d f0 1c d1 3c
       0.065067485 0.11238387 0.05018413 0.025526494
0000f0 3b 3a 95 3e 50 b3 c9 bd b3 84 bc 3e 32 15 f3 3d
       0.2914599 -0.09848654 0.3681999 0.11869277
000100 63 9e 5b 3e 27 e6 9b 3e e2 32 fa 3d db 86 ae 3e
       0.21447138 0.3044903 0.122167364 0.34087262
000110 a9 38 9c bd 78 9d 99 3d e0 bf 87 3c 60 55 50 3d
       -0.076279946 0.07500738 0.016570985 0.05086267
000120 3f 91 bc 3e 7c c2 fa 3d b2 5a 9d 3d d0 f6 2f 3d
       0.36829564 0.12244126 0.076833144 0.042959988
000130 ce 0e ac 3e a6 22 ba 3e 70 55 df bb d6 32 9d 3d
       0.33605045 0.3635456 -0.006815605 0.07675712
000140 cd 54 17 bd d8 32 2d 3d 61 77 a7 3e 9e 5f 60 3e
       -0.036946107 0.042284817 0.32708266 0.21911475
000150 b2 26 a7 3e 18 78 a4 bd e0 44 80 bb b6 c4 83 3d
       0.3264671 -0.080307186 -0.0039144605 0.06434004
000160 31 b5 d3 3b f2 01 ad bd f0 4a f9 3c 57 26 a7 bc
       0.0064608087 -0.08447637 0.03043124 -0.020404024
000170 c8 26 11 3d 6c 1d b7 3e 39 ae a4 bd 08 97 54 3d
       0.035437375 0.35764635 -0.08041043 0.051901847
000180 a7 0f 00 3e 42 48 0f 3d 4f 7c b5 bd ee b2 92 3e
       0.12505971 0.03498102 -0.088616006 0.28652138
000190 1e 87 83 3d 88 68 01 bd 40 a2 ab 3d 80 f7 25 3c
       0.06422256 -0.03159383 0.08380556 0.010129809
0001a0 8d ec 75 3e 8f 7c 3a bd 91 11 9a 3d e4 b2 e1 3d
       0.24016018 -0.045528945 0.07522882 0.11020449
0001b0 bb cb b9 3e 16 a6 b0 bd a1 8c 77 bc d9 33 82 bd
       0.36288247 -0.086254284 -0.015109212 -0.063575454
0001c0 72 5d bc 3e 7c 7e dc bd 3a c3 dc bd 9b 81 6e bd
       0.36790043 -0.107663125 -0.10779424 -0.05822907
0001d0 cc ea ca bd a3 e5 9c 3e 60 a5 fd bd cb d4 8e 3e
       -0.09908065 0.3064395 -0.123850584 0.27896723
0001e0 3a 4d 8e bd b6 dd 94 bd 04 74 1f bd d8 ee c4 bc
       -0.069483235 -0.072688505 -0.038929 -0.02403967
0001f0 b5 4a b7 3e 84 2e 8c bd 07 b9 a9 3e fc 0b 3d 3d
       0.35799184 -0.0684481 0.33148977 0.046154007
000200 db 9e ba 3e 3b e6 70 3e 28 d4 f5 3c 40 f3 84 3e
       0.36449322 0.23525326 0.03000839 0.25966835
000210 3b 8f 72 bd 20 3f 94 bd 09 af f8 3d b8 2c d9 bd
       -0.059218626 -0.07238603 0.1214276 -0.106042325
000220 54 4a 55 3e 10 05 93 3c 29 6f 4f bb 1e 32 c2 3d
       0.20829135 0.01794675 -0.003165195 0.09482215
000230 b4 a8 aa 3e 0a 7a c7 3e b9 fa 87 bd 18 3d 0d bd
       0.33331835 0.38960296 -0.066396184 -0.03448209
000240 b9 e0 de bc 10 24 d2 3d 3f f2 83 3e e2 de a3 3e
       -0.027206765 0.102607846 0.25770757 0.32005984
000250 0c 84 b1 3e 74 98 ec 3d d0 cd d3 bc fa ae af 3d
       0.34671056 0.115525156 -0.025854975 0.08578296
000260 22 2b a1 3d 82 64 d1 3d 68 c4 6d bd 66 28 b9 3d
       0.07869555 0.102242485 -0.058048636 0.090409085
000270 ba 7a bf 3d 49 74 64 3e 34 aa 8b 3d ac 15 61 bd
       0.0934958 0.22309984 0.06819573 -0.05495231
000280 51 23 e8 3d c8 e7 50 bd c5 a4 81 bd 3d 09 b3 3e
       0.11334861 -0.051002294 -0.063302554 0.34967986
000290 54 3b 97 bd f0 1b 05 3c 84 a7 ed 3d 38 43 b7 bd
       -0.07384363 0.008124337 0.11604217 -0.08948368
0002a0 c3 a6 ba 3e a9 f8 30 bd 89 41 92 bd d6 73 a7 3d
       0.36455354 -0.04320589 -0.07141406 0.08176391
0002b0 fe e5 bd 3e c5 c2 e3 3d f5 b8 65 bd 75 c8 f9 b9
       0.37089533 0.11121134 -0.056084592 -0.00047642333
0002c0 03 42 bc 3e 20 75 43 bc a6 bc da 3d 65 32 0f 3e
       0.36769113 -0.01192978 0.10680513 0.13984068
0002d0 44 18 b8 3d 1c b6 bb 3e 74 da d9 bd dd 50 a7 3e
       0.08989003 0.36662376 -0.1063737 0.3267888
0002e0 85 0d fe bc 48 c5 f5 3d 58 5d a0 3d 70 17 21 bc
       -0.031012306 0.12000519 0.07830304 -0.009832248
0002f0 69 5c c7 3e c6 d7 b6 bd e0 9e 85 3e 6e cf 87 bd
       0.3893769 -0.08927874 0.26097775 -0.06631361
000300 79 d6 cd 3e 88 98 a8 3e c6 7d 95 3d 60 f7 86 3e
       0.40202692 0.32928872 0.0729938 0.26360607
000310 fd 72 85 3d a0 4b f2 3d b7 eb bc bd e1 d4 3b bc
       0.06516073 0.118308306 -0.092246465 -0.0114643285
000320 8d 9d 8c 3e 4e 4e c6 bd 66 1d 43 bd 3e 03 e9 bd
       0.27463952 -0.09682904 -0.04763546 -0.113775715
000330 28 e4 93 3e 19 9e 80 3e c8 46 10 3e 9c ae b4 3d
       0.28885007 0.2512062 0.14089501 0.088223666
000340 66 cc 34 bd c0 a2 b3 bb 4d e1 cb 3e 32 6b e0 3e
       -0.044140242 -0.005482048 0.39820328 0.43831784
000350 21 58 b3 3e 5c 2a f6 3d ec a6 7b bd 74 76 4a bd
       0.35028175 0.12019798 -0.061438486 -0.049429372
000360 b2 98 eb bb 48 b7 ff 3d 60 5c db bc 61 b9 19 bd
       -0.0071898336 0.1248613 -0.026777446 -0.037530307
000370 42 09 ce bd cd 39 9b 3e 3f 0a bb 3d 86 02 8e 3d
       -0.100603595 0.30317536 0.09132814 0.06934075
000380 78 cf f1 3d cb dc 48 bb ca bb a2 bd 73 7e c7 3e
       0.1180715 -0.003064918 -0.07945974 0.3896366
000390 8d 77 58 bc 2a a7 ef 3d 44 4c 11 bd 90 56 aa bd
       -0.013212097 0.11701806 -0.035473123 -0.08317292
0003a0 dd 12 9e 3e 8c 26 9b bc cd 83 9c 3d ea f5 da 3d
       0.30873767 -0.018939279 0.076423265 0.10691436
0003b0 2f 16 65 3e 61 bf 6d bd 7b 48 37 3d f7 fe e0 bd
       0.22371744 -0.05804384 0.044746857 -0.10986131
0003c0 85 b1 68 3e 90 60 b2 bc 9c 97 8a bd 42 b1 b7 bd
       0.22723968 -0.02177456 -0.067671984 -0.08969356
0003d0 30 34 10 bc 6f 64 a7 3e 8a d6 bc bd 3a 07 ad 3e
       -0.008801505 0.32693812 -0.092206076 0.33794576
0003e0 82 08 ce bd 12 60 de 3d f8 f2 b3 bc 74 ea 96 3d
       -0.100602165 0.10858168 -0.021966442 0.07368937
0003f0 f5 9a 9f 3e 20 61 3a 3d 4c aa 9f 3e d8 26 97 bd
       0.3117291 0.045502782 0.31184614 -0.07380456

fc3.bias f4 [5]
000000 5a 6a 94 41 ae 54 9a 41 d3 d2 95 41 e6 e8 90 41
       18.55193 19.291348 18.727942 18.11372
000010 a2 6a 9e 41
       19.802067
